X shape: (3618, 128, 3)
y shape: (3618,)
Unique labels: [0 1 2]
Label distribution: [ 484  843 2291]
Random split (evaluation)
Train: (2532, 128, 3) (2532,)
Test : (1086, 128, 3) (1086,)
Model: "model"
_________________________________________________________________
 Layer (type)                Output Shape              Param #   
=================================================================
 input_1 (InputLayer)        [(None, 128, 3)]          0

 conv1d (Conv1D)             (None, 128, 16)           256       

 max_pooling1d (MaxPooling1  (None, 64, 16)            0
 D)

 conv1d_1 (Conv1D)           (None, 64, 32)            2592      

 max_pooling1d_1 (MaxPoolin  (None, 32, 32)            0
 g1D)

 conv1d_2 (Conv1D)           (None, 32, 64)            6208

 global_average_pooling1d (  (None, 64)                0
 GlobalAveragePooling1D)

 dense (Dense)               (None, 64)                4160

 dropout (Dropout)           (None, 64)                0

 dense_1 (Dense)             (None, 3)                 195

=================================================================
Total params: 13411 (52.39 KB)
Trainable params: 13411 (52.39 KB)
Non-trainable params: 0 (0.00 Byte)
_________________________________________________________________
Class weights: {0: 2.489675516224189, 1: 1.4305084745762713, 2: 0.5265127885215222}
Epoch 1/60
32/32 [==============================] - 1s 17ms/step - loss: 0.8398 - accuracy: 0.6602 - val_loss: 0.7445 - val_accuracy: 0.6095 - lr: 0.0010
…
