X shape: (1429, 128, 3)
y shape: (1429,)
Unique labels: [0 1]
Label distribution: [759 670]
Random split (evaluation)
Train: (1000, 128, 3) (1000,)
Test : (429, 128, 3) (429,)
Model: "model"
_________________________________________________________________
 Layer (type)                Output Shape              Param #   
=================================================================
 input_1 (InputLayer)        [(None, 128, 3)]          0

 conv1d (Conv1D)             (None, 128, 16)           256

 max_pooling1d (MaxPooling1  (None, 64, 16)            0
 D)

 conv1d_1 (Conv1D)           (None, 64, 32)            2592

 max_pooling1d_1 (MaxPoolin  (None, 32, 32)            0
 g1D)

 conv1d_2 (Conv1D)           (None, 32, 64)            6208

 global_average_pooling1d (  (None, 64)                0
 GlobalAveragePooling1D)

 dense (Dense)               (None, 64)                4160

 dropout (Dropout)           (None, 64)                0

 dense_1 (Dense)             (None, 2)                 130

=================================================================
Total params: 13346 (52.13 KB)
Trainable params: 13346 (52.13 KB)
Non-trainable params: 0 (0.00 Byte)
_________________________________________________________________
Class weights: {0: 0.9416195856873822, 1: 1.0660980810234542}
Epoch 1/60
13/13 [==============================] - 1s 29ms/step - loss: 0.6711 - accuracy: 0.6662 - val_loss: 0.6358 - val_accuracy: 0.8350 - lr: 0.0010
…
